TrainData.pth (torch, 4247 bytes, 6 tensors)

l1.weight f4 [8, 33]
000000 f5 5b 42 3e ed bb 2f 3d aa 0e e3 be 14 4d ce 3e
       0.18980391 0.04290383 -0.44347125 0.4029318
000010 09 29 a6 3f 5e 67 da 3e 73 64 cb be 9d 1f 6b bf
       1.2981273 0.42656988 -0.39725074 -0.91845113
000020 01 34 69 bf c4 c2 dd be 59 47 55 bf 1f e0 f3 3e
       -0.91094977 -0.43312657 -0.8331199 0.47631928
000030 c9 da b2 3e 06 62 d5 3e b0 c1 5d bf 9d ab ee 3e
       0.34932545 0.41676348 -0.8662367 0.46615306
000040 60 b0 1b 3f 6b 5a e5 be 1b af 89 3e 08 56 55 bf
       0.60816 -0.44795546 0.26891407 -0.833344
000050 80 78 49 be 56 63 e3 be de 4c e2 3e 2d f0 9d 3e
       -0.19674873 -0.44411725 0.4419927 0.30847302
000060 5a 92 99 be 51 14 a3 3e 1a 8a 7e 3e 87 ea b5 3e
       -0.2999447 0.31851438 0.24857369 0.35530493
000070 c1 51 92 3e e7 3d 70 3f cb 31 bf 3e b6 1f 2d 3d
       0.28577998 0.93844455 0.37342677 0.04226657
000080 c8 0d 99 3d e0 f8 0d 3f e5 51 a2 be 08 d1 c9 3d
       0.07473332 0.5545788 -0.31703106 0.09854323
000090 9e fd 9b 3d b9 f9 b3 3f 13 f6 8b be 27 bd 97 3c
       0.07616733 1.4060584 -0.27336177 0.018522812
0000a0 9a e3 e8 3d 28 42 85 3d a1 0a 0c 3d 0f c1 1f bf
       0.113715366 0.06506759 0.034189824 -0.6240396
0000b0 5f ad f5 3e c0 fe 08 3f 0a d6 fb 3e da d2 39 bd
       0.47983834 0.5351372 0.49186736 -0.0453671
0000c0 4e 5d d8 3d a2 52 36 3f 24 1c 93 3e 89 d7 c3 be
       0.105646715 0.7121984 0.28732407 -0.38250378
0000d0 ee c0 1f bf 66 e9 91 3e 4b e1 16 3b 53 d0 b6 bd
       -0.6240376 0.2849838 0.0023022469 -0.089264534
0000e0 ab 6d 44 3d 43 67 3f bf ea 94 ab 3e 6e 7a 0d 3f
       0.04795615 -0.7476694 0.3351205 0.5526494
0000f0 41 f8 a2 3e 09 b0 92 3c da 1a 03 3e 98 da d5 3e
       0.31830028 0.017906206 0.12803212 0.41768336
000100 ed 53 86 be ff f2 ba be 2c cf 67 3f cc 9e 05 bf
       -0.26235905 -0.36513516 0.90550494 -0.5219543
000110 34 05 21 3f 13 7e dc 3d c6 41 3e 3f 51 2b 88 3f
       0.62898564 0.10766234 0.7431911 1.0638219
000120 de d9 4e 3f 41 34 cd be d6 7a bf be 7b 8b 50 3f
       0.8080119 -0.4007893 -0.37398404 0.8146283
000130 19 05 36 bf 8e 04 36 bf 2b fe 35 bf 0a 02 36 bf
       -0.7110153 -0.711007 -0.71090955 -0.7109686
000140 d7 2a cd be f9 88 3a 3f 51 06 36 bf 28 57 1f 3f
       -0.40071747 0.72865254 -0.7110339 0.62242365
000150 e2 bb 12 bf c0 03 36 bf dc 0d 14 3f 15 be 5c 3f
       -0.57317936 -0.7109947 0.5783365 0.8622754
000160 df fd 04 3f af 30 c0 3e 52 09 48 bf 70 ec 8d 3e
       0.51949877 0.37537143 -0.7813922 0.2771945
000170 1d 79 89 be 29 8f e2 be 9e 4a 09 3f f6 f9 54 3f
       -0.26850215 -0.44249848 0.5362948 0.8319391
000180 84 4f 59 3f d8 b0 58 3e b5 e0 e3 be c3 ee d6 3e
       0.84886956 0.2116121 -0.44507375 0.41979036
000190 97 13 3e 3f 18 66 26 bf 9c c5 45 3e d8 9f 87 bf
       0.7424864 -0.6499953 0.19313663 -1.0595655
0001a0 6d 8a 47 bf 45 1a 0f bf 36 47 16 3f c8 19 33 3f
       -0.77945596 -0.5589946 0.5870241 0.69961214
0001b0 b6 e3 09 bf b8 6b 67 3e 09 4f 4d 3f 4f 4b e3 3e
       -0.53863084 0.22599685 0.80198723 0.44393393
0001c0 4a 0c 54 3f d7 ab 1e 3f 3c 51 07 3f 90 bc 72 3f
       0.8283125 0.61980957 0.5285833 0.94818974
0001d0 8b 06 a8 be 42 df 4b 3f f3 fd 60 3e ff 81 0a bf
       -0.32817492 0.7963754 0.21971874 -0.5410461
0001e0 80 71 09 bf 4e 65 34 be 59 24 a5 3d 97 61 df be
       -0.5368881 -0.1761677 0.080635734 -0.43629143
0001f0 c2 78 24 bf 0f e6 c7 3e ec 49 19 3f fa c7 e8 3d
       -0.6424676 0.39042708 0.5987842 0.113662675
000200 e3 42 04 3f 31 fe 16 3f 17 db 24 3f d8 6d 77 3f
       0.5166456 0.58981615 0.64396805 0.96651983
000210 14 bb 4d 3f 7c 8e 4d 3f 4a 79 59 3f 94 6a 6a ba
       0.80363584 0.8029554 0.849507 -0.0008942273
000220 93 e0 2f bf 66 a0 79 bf 15 4a 58 3f f8 4a 32 3f
       -0.6870205 -0.97510374 0.8448804 0.69645643
000230 2b 36 43 3f 6c e3 53 3f be 44 c0 3d 91 b7 5d bf
       0.7625453 0.82768893 0.093881115 -0.86608225
000240 71 ca 6e bf 85 97 79 bf 49 32 6d 3f a7 a6 1b 3f
       -0.9327765 -0.97496825 0.92654854 0.60801166
000250 21 93 79 bf 15 ab 22 3f b3 0a 08 3f bb bb d4 bd
       -0.97490126 0.635423 0.53141326 -0.10387369
000260 90 16 98 3e 37 48 5a 3f 04 b6 11 be 58 13 c6 bc
       0.29704714 0.8526644 -0.1422959 -0.024179146
000270 5f 99 79 bf aa 26 1f bf 73 87 19 bf a9 23 c0 be
       -0.9749965 -0.6216837 -0.59972304 -0.37527207
000280 73 ee 00 3e a8 5d 91 3e ab 40 23 3f 97 a9 5b 3f
       0.12590961 0.28391767 0.6377055 0.8580565
000290 2f 68 5f 3e 57 c5 33 bf 97 0e 3d 3e 75 76 2c 3f
       0.21817087 -0.7022299 0.18462597 0.6736825
0002a0 ec 42 1b 3f 2d 3e c9 3e 0b 3a 9d 3f de df 2a 3f
       0.6064899 0.3930525 1.2283338 0.66747844
0002b0 0a d8 3c bf d5 8b 41 bf 36 cf 2c 3f a0 54 9a 3f
       -0.7376715 -0.7560399 0.6750368 1.2057076
0002c0 92 b6 92 be 66 e3 e5 be ac 76 a5 be a6 be 40 bf
       -0.28654915 -0.44900054 -0.32317102 -0.75290906
0002d0 ea 32 84 be 92 ee 6f be ba 29 ee 3e d5 bf b6 3e
       -0.25820094 -0.23430851 0.4651621 0.3569323
0002e0 12 e6 80 3f de 52 93 3e ec f9 1c 3f ff a5 11 3f
       1.0070212 0.2877416 0.6131885 0.56893915
0002f0 de 26 a9 3e fb 5b a1 3f 9b b7 f4 3e bb 7a d2 bd
       0.33037466 1.2606195 0.4779633 -0.10277315
000300 fe e5 53 bd e5 d6 bf 3e c2 6a 89 3e b4 c9 33 bf
       -0.05173301 0.3746864 0.26839262 -0.7022965
000310 cf b9 8d 3e 83 3f dc 3e 92 7f 12 3e fa 03 bb be
       0.27680823 0.43017206 0.14306477 -0.3652647
000320 7c 56 35 bf dd 2d 0e 3f 84 97 d0 3e 85 a9 9d be
       -0.7083509 0.5553873 0.40740597 -0.30793396
000330 0f 4e 35 bf 54 c5 9b 3d 60 f3 e7 bc c6 4b 35 bf
       -0.7082223 0.07605997 -0.028314292 -0.70818746
000340 64 ea e6 be 40 f6 6e 3f 8a 6f 82 3f 7c cd 3b 3f
       -0.451007 0.933445 1.0190289 0.7336042
000350 eb f7 25 be cc 66 1b 3e 45 d2 25 3f 79 aa cc bd
       -0.16207854 0.15175933 0.6477397 -0.099934526
000360 06 02 20 3f 71 53 14 bf 43 32 41 be ef 4f 35 bf
       0.6250309 -0.5793982 -0.1886683 -0.70825094
000370 7e ba 89 3e ce 04 e0 3d f5 2d 54 3f 7a 5a b9 bd
       0.26900095 0.109384164 0.82882625 -0.0905046
000380 cb 70 df 3e d9 a4 ff 3e 26 30 d2 3d 33 ea a6 3c
       0.43640742 0.49930456 0.1026309 0.020375347
000390 09 ec 09 bd fa eb d6 be 67 f5 33 3f 96 b2 86 bd
       -0.033672366 -0.4197691 0.7029633 -0.06577031
0003a0 b5 ed 99 3d 50 02 74 bc 20 c7 7f bc 98 8c 87 3d
       0.07516042 -0.0148931295 -0.01561144 0.06618613
0003b0 c6 d2 dc bd f0 b1 40 3c 5d 41 14 3c 8b f9 98 3c
       -0.10782389 0.011761174 0.009048787 0.018673679
0003c0 3d c4 08 be a4 90 24 3e 40 23 4e 3d f8 e2 88 bc
       -0.13356109 0.16070801 0.050326586 -0.01670979
0003d0 c8 01 a5 bd dc 70 18 3d d4 1a 2b 3e 48 21 1f 3d
       -0.0805698 0.037217006 0.16709453 0.0388501
0003e0 08 89 3d 3d a0 66 90 bc ca d5 0a be ef 72 c3 bd
       0.04627326 -0.01762706 -0.13558117 -0.09543406
0003f0 b2 20 2e 3e 4e 53 09 be ec 66 37 3d 58 98 77 3d
       0.1700466 -0.13410684 0.04477589 0.06044802

l1.bias f4 [8]
000000 b4 43 55 3f 9c c7 1f 3f ab 00 36 3f c9 84 47 3f
       0.8330643 0.62413955 0.7109477 0.7793699
000010 62 99 79 3f 87 c8 33 3f cd 54 35 3f 1d b8 4a be
       0.9749967 0.70227855 0.7083252 -0.19796796

l2.weight f4 [8, 8]
000000 3d be a1 3f b1 56 b5 3f 19 d0 e1 3f 74 40 a2 bf
       1.2636181 1.4167081 1.7641631 -1.267592
000010 94 12 63 3f 02 2e 7d 3e d9 18 7c bf d0 6b 50 be
       0.8870022 0.24724582 -0.98475415 -0.20353627
000020 90 9b 72 3d f3 3a 58 be 7b 58 98 be dc f8 e3 3d
       0.059230387 -0.21116237 -0.29755005 0.111314505
000030 48 73 be bd 8f 6e 55 be cc 18 a3 3d b0 a2 b4 bc
       -0.09299332 -0.20842956 0.07963714 -0.022050232
000040 4a e0 57 bf 96 b3 d0 be 80 b8 0c bf 09 3c 56 3f
       -0.8432661 -0.40762013 -0.54969025 0.83685356
000050 50 89 b0 3f e4 ad 92 3f 6f 5f 1c bf fc 31 b5 bd
       1.3791904 1.1459317 -0.6108312 -0.088474244
000060 28 76 9c be 05 b8 92 bf 2c 49 90 bf 9e 71 b7 3f
       -0.30558896 -1.1462408 -1.127233 1.4331548
000070 f0 df 79 3f 36 7d 59 3e ac 61 1d bf 30 11 6f 3d
       0.97607327 0.2123917 -0.6147716 0.058366
000080 72 7c 9d 3f 43 22 d1 3f fa a9 d7 be b1 44 c6 3f
       1.2303603 1.6338581 -0.4212187 1.5489713
000090 b3 96 69 3d f0 df a9 bf 26 7d f2 3f c3 fb 48 3e
       0.057028484 -1.3271465 1.8944442 0.1962729
0000a0 64 fa b5 bd 9c 3e 5d 3e 97 32 28 be 3c ea 9b bd
       -0.08885649 0.21605915 -0.16425548 -0.07613036
0000b0 4d dd 9c be bc cc 35 3d 5e 8e e5 bd 68 a3 0b 3e
       -0.3063759 0.044384703 -0.11208795 0.13636553
0000c0 25 d2 8d bd 18 93 df be 32 4c 53 3f 9d c9 84 3f
       -0.069248475 -0.4366691 0.8253814 1.0374027
0000d0 0c 7a cc 3f 87 b6 80 bf 3e f3 72 be 2d 0a 92 be
       1.5974746 -1.0055703 -0.23725602 -0.28523389
0000e0 f5 85 88 3f d7 90 00 bf 2c 2c 8c 3e 79 56 55 3e
       1.066588 -0.5022101 0.2737745 0.20833768
0000f0 bc dd 01 bf 0f 14 ce 3f a5 2b b9 3f 1e 07 0c 3e
       -0.50728965 1.6099871 1.4466444 0.1367459

l2.bias f4 [8]
000000 ea 31 50 3e 04 ac 7e be b4 45 1b 3f 07 f3 4b 3e
       0.2033154 -0.24870306 0.60653234 0.19916926
000010 10 44 da 3e df ea bd bd 3c 5f a5 3e fb 9d 02 3f
       0.42630053 -0.09273314 0.3229922 0.5102231

l3.weight f4 [9, 8]
000000 5e e0 0d 3f 68 c4 29 3d 70 34 87 3e 03 27 da bf
       0.5542048 0.041447073 0.26407194 -1.7043155
000010 c6 05 a6 bf 8f c5 12 3e 5c 61 9b 3e c9 51 7f bf
       -1.2970512 0.14333175 0.30347717 -0.9973417
000020 c8 ed 42 3f 87 86 5f be 69 81 ff bf 8c 88 0d bf
       0.76144075 -0.21828662 -1.9961368 -0.5528648
000030 d1 8b 8b 3e 7a 72 f9 bd 1f 03 90 bf a6 c4 13 bf
       0.2725511 -0.12180038 -1.1250952 -0.57721937
000040 f6 5d 23 3f 80 76 9c bd d3 8b ea bf 37 ea 75 bf
       0.6381525 -0.076397896 -1.8323921 -0.9606051
000050 72 f6 d7 bf da 7b dc 3d de e2 b7 bf 59 cc eb 3e
       -1.6872084 0.1076581 -1.4366109 0.46054342
000060 52 9e d2 bf 00 86 5c 3d af 06 56 3f 37 30 af 3e
       -1.6454566 0.05383873 0.8360395 0.34216473
000070 0b dc e3 bf 5b 5f e7 bd 58 1f 97 be 50 66 cf bc
       -1.7801527 -0.112974845 -0.295161 -0.025317341
000080 2c 42 82 bf 90 ca 11 3d ae 4c d2 bf 32 25 a1 bf
       -1.0176444 0.03559357 -1.6429651 -1.2589476
000090 86 8c 88 3f 29 24 2c be 06 e8 4e bf a7 3d d2 be
       1.0667884 -0.16810669 -0.8082279 -0.41062662
0000a0 90 c8 e7 bf ba b0 80 be 33 48 ad 3e ed 1c 04 3f
       -1.8108082 -0.25134832 0.33844146 0.5160664
0000b0 a3 ca 0e be 84 ec e8 3c be 37 a9 3e 49 71 ef bf
       -0.13944487 0.028433092 0.3305034 -1.8706447
0000c0 2c 6a 4e bf 90 73 80 be 5d 73 41 bd 18 87 0d 3e
       -0.80630755 -0.25088167 -0.04722916 0.13821065
0000d0 33 ae 11 bd 7a 28 6c be fc 39 29 3e 01 b2 c0 be
       -0.03556652 -0.23062316 0.16526026 -0.37635806
0000e0 bc fc 8f bf 5c fd a9 bd c2 f1 1e 3e 8a 68 0a c0
       -1.1249003 -0.083002776 0.15521911 -2.1626306
0000f0 57 4d 0c bf 1b af 99 3e e7 f1 5e bf 3b 87 52 3f
       -0.5480551 0.30016407 -0.87087864 0.82237595
000100 b9 ba db 3c ce db de bd c0 c5 a2 bf fb 27 a9 bf
       0.026822435 -0.10881768 -1.2716599 -1.3215326
000110 07 29 f3 3e b3 24 65 be 9b 01 72 3f f7 ee 8b bf
       0.4749224 -0.22377281 0.945337 -1.0932301

l3.bias f4 [9]
000000 97 f7 c5 3e b4 dd 16 bf 5a 06 2a 3e 45 29 ce 3e
       0.3866546 -0.5893204 0.16603985 0.4026586
000010 27 44 85 3e 98 5d 5b be 94 e0 05 be f2 28 ba 3e
       0.2602856 -0.21422422 -0.13073951 0.36359364
000020 52 eb 9d be
       -0.30843598
